Model/saved-models/pytorch_cancer_model.pth (torch, 298698 bytes, 5 tensors)

fc1.weight f4 [256, 30]
00000000: e49e 1fbe 8451 21be 8490 913d 6032 0b3e
00000010: b0ad 733c e809 a33d 57ed 3abe f06b 263c
00000020: 3007 d73d 40d9 a73c c855 c63d 4472 9ebd
00000030: 8c9d 193d b40f 163e a05a bd3d e8d1 cc3d
00000040: 3ba8 8dbd 2c32 643d 084e 0ebd e4c4 6f3d
00000050: c598 01be 54d1 9b3d 362e 16be 840d 1c3e
00000060: 0285 223e 0657 38be f0a7 393e fc8a 08be
00000070: 781e 293e 6c32 07be ef64 4ebd 2317 23be
00000080: 00d5 56bd 6985 0bbe 4746 14be 4ebe 76bd
00000090: b80e cb3d 949e 00bd 05f2 f7bd 2f97 04be
000000a0: 77a4 223c 04f3 f83c ab6b af3c 699c 2e3e
000000b0: 8337 ed3d b913 7abd df00 063e d3bf 9cbd
000000c0: 6e83 533d e570 243e 232f 3c3e 9640 373d
000000d0: eb8e 333e 2b08 1d3e c060 07be e0e0 2abc
000000e0: 6136 cfbd e2f2 d0bd 3f55 18be 33ee 59bd
000000f0: 552e 1a3e 53f6 0e3e b459 303d 1270 423e
00000100: d7cb d0bd 2338 e03d 4845 393e 38d0 64bd
00000110: 3316 b33d 16af dc3c d999 e6bd f699 f43a
00000120: c8cc ecbd f528 e8bd 9305 02be 6989 12bd
00000130: 3066 92bd bd98 253c aa5a a73c c0dd 993d
00000140: f493 2b3e 102d 223e d11b 5b3d 9e42 87bd
00000150: 1abe 00bd 9c22 cd3c 6827 09bd 9328 71bd
00000160: 8b90 98bc 0424 f0bd 85bf 713e efae 0fbe
00000170: 3770 303d fbad 63bc 0d9f 37bf 7077 6cbf
00000180: 11a0 88bf 76ee 83bf 7611 47bf 9252 2abe
00000190: f09e 11bd 3afe 963e 6beb d7be 378a c63b
000001a0: 21d8 51bf 46d3 11bf 9427 3dbf 4cc7 46bf
000001b0: f27e 68bf 3cc9 3ebf 4e2b 8f3e 50e6 1ebe
000001c0: eab7 ef3c c428 3a3b 5980 5abf 38d6 48bf
000001d0: 64dc 71bf cde3 85bf 284e 3ebf 9485 3abf
000001e0: 51f3 2cbe 660d d1bd 88d5 8b3d 5828 45bd
000001f0: 841e 003d 6762 14be b76c 0ebe 88d8 133e
00000200: 54ab b53d 3c09 dd3d cc72 53bd d0b8 f03c
00000210: 4068 da3b 40ea 1fbe 8eee 13be 8865 7f3d
00000220: 6807 b63c e0b9 a53b d1ea 30be 900f 65bc
00000230: 0cca 0d3e 1aaf 823d f871 0a3e 14d0 323e
00000240: 002a 2ebb b01f 89bc c0a0 11bc 3c58 92bd
00000250: 57dc e0bd 09ea 05be 40d5 d53b fe60 123e
00000260: 10b2 8e3d 74e1 283d fcea a53d a811 50bd
00000270: c0f6 57bb 6c93 8c3d 0a31 09be 99df 0cbe
00000280: 0a44 d9bd aefa 253e e83f 533d b039 3f3d
00000290: c01e 8b3d 3834 2a3d 8045 82bb 2ccc 26bd
000002a0: 980a a93d 90e9 2f3d dc91 363e f8ae ce3c
000002b0: f0a8 fabd d68b 1e3e f95c 1abe 2074 c93d
000002c0: 9858 9a3d 58ad a73d e270 033e 506e 903d
000002d0: 00aa 04bb b813 a93c 3462 493d 64cc 32be
000002e0: ec16 c63d d8a9 c4bc f8a5 d2bc b962 0dbe
000002f0: bc26 da3d aabd b1bd 5441 e43d 7cb0 213e
00000300: 6421 2c3e 04a8 1ebd 48e7 1bbd f402 c73d
00000310: f0af aa3d 24bd 76bd e04a 533c 25c2 1dbe
00000320: 44e1 b8bd d936 c0bd eb0b 66bb 4982 813b
00000330: c050 20be 8c84 90bd f402 d33d a07a 54bd
00000340: eaf1 f4bd 1ef8 f3bd 9c21 0c3d 4ab0 063e
00000350: 4e14 9dbd 28ff eb3d 6094 35bc a08e 183e
00000360: 148c f43d b42e 103e acba 2b3d 1cca 4ebd
00000370: 44a6 09be f8e8 033e fc6a fe3d ce49 ecbd
00000380: b248 0c3e 62c0 1e3e cc92 373e 6cad 403d
00000390: d7f3 debd b87c 5f3d 744d 343d 94f2 3d3d
000003a0: 6011 b33c 345a 4e3d b48e 2d3e 285d f9bc
000003b0: 044e b63d ff65 01be f4e1 ff3d a8e5 b9bc
000003c0: 0c1f 713d 3098 1fbe ecb0 ec3d a88b 153d
000003d0: 2a21 8bbd b0af 4d3d 1fd5 29be c5e2 83bd
000003e0: 04ac 96bd 80d4 99bb 84bc 2d3d 186e a03c
000003f0: b45c 073e 0ec4 07be e0cb b1bb 94be 6ebd
-0.15587956 -0.15753752 0.07107642 0.13593435 0.014872953 0.07960874 -0.182546 0.01015757
0.10499418 0.020489335 0.0968433 -0.07736638 0.037503764 0.14654428 0.09245801 0.10000974
-0.06916853 0.05571191 -0.034742385 0.05853738 -0.12655933 0.076082855 -0.14666066 0.15239531
0.15871051 -0.18001947 0.1813047 -0.13334268 0.16515529 -0.13202828 -0.050389227 -0.15926795
-0.052449226 -0.1362511 -0.14479934 -0.060240082 0.09914917 -0.031401232 -0.121067084 -0.12948297
0.009926907 0.030389316 0.021413645 0.17051853 0.11582854 -0.061053965 0.1308627 -0.07653775
0.051639013 0.16058691 0.18377356 0.04473933 0.17534988 0.15335147 -0.13220501 -0.010429591
-0.10117794 -0.10202576 -0.14876269 -0.05320568 0.15056737 0.13961153 0.043054298 0.18988064
-0.10195129 0.10948207 0.18092835 -0.055862635 0.087444685 0.026938956 -0.11259813 0.0018661607
-0.115624964 -0.11335937 -0.12697439 -0.035775576 -0.07148397 0.010107216 0.020428974 0.075129986
0.16755658 0.15837502 0.053493325 -0.06604503 -0.031431295 0.025040917 -0.033484846 -0.058876585
-0.018623611 -0.117256194 0.23608215 -0.14031576 0.043075766 -0.013896461 -0.7172707 -0.9236975
-1.0673848 -1.0307148 -0.7776102 -0.1663306 -0.035551965 0.29490834 -0.42171797 0.006058957
-0.8197041 -0.56963 -0.73888516 -0.7764785 -0.90818703 -0.7452581 0.27962726 -0.15517545
0.029262502 0.0028405646 -0.85352093 -0.7845187 -0.94476914 -1.0460144 -0.74338007 -0.72860074
-0.16889693 -0.10207634 0.06827837 -0.048134178 0.031279102 -0.14490663 -0.13908659 0.14438069
0.08870569 0.10792777 -0.05162315 0.029385 0.0066652596 -0.15616703 -0.1444647 0.062352687
0.022220328 0.0050575584 -0.17277075 -0.013980761 0.13846606 0.06381054 0.13520038 0.17462188
-0.0026575327 -0.016738743 -0.008888423 -0.071457356 -0.109795265 -0.13077559 0.0065256655 0.14294812
0.069675565 0.041230634 0.0810146 -0.05079809 -0.003295347 0.06864056 -0.13397613 -0.1375717
-0.106086805 0.16208908 0.051574618 0.046685874 0.067929745 0.041553706 -0.00397557 -0.040722057
0.08253974 0.042947352 0.17829078 0.025229916 -0.122392535 0.1548303 -0.15074529 0.09836602
0.07536429 0.081873596 0.1283603 0.070522904 -0.002024293 0.020639285 0.04916592 -0.17460781
0.09672341 -0.024006769 -0.025713906 -0.13807191 0.10651919 -0.08678754 0.11145273 0.1578998
0.16809613 -0.03873445 -0.038062364 0.0971736 0.08334339 -0.060238972 0.01289627 -0.15406092
-0.09027341 -0.09385461 -0.0035102319 0.003952299 -0.15655804 -0.07056531 0.10303298 -0.051874757
-0.11960204 -0.11912559 0.03421174 0.13153186 -0.076698884 0.115232766 -0.011082739 0.14898157
0.1194078 0.14080316 0.04192607 -0.050485715 -0.13442332 0.1288184 0.124227494 -0.115375146
0.13699606 0.15503076 0.17927092 0.047040388 -0.108863525 0.0545623 0.044019178 0.04637392
0.021858871 0.050378993 0.16948968 -0.030439928 0.08901599 -0.12636565 0.12494269 -0.022692516
0.0588675 -0.15585399 0.11557183 0.03651014 -0.06793435 0.050216377 -0.16585205 -0.06439737
-0.07357028 -0.0046945214 0.04241611 0.019583747 0.13218957 -0.13258383 -0.005425915 -0.05828722

fc1.bias f4 [256]
00000000: 0ccb 19bd fd1c 7e3d fa44 353d 47c2 f53e
00000010: 4c0e 23bd 683d ae3d 98e2 43bd f4d6 003e
00000020: a1e1 83bd 4089 223e f42d 523e d6ba d03d
00000030: aeff 9dbd 0edd f8bd 70d3 70bc faac a83d
00000040: d9ba e63d b82a 50bd 7a0f 163e f08f 463d
00000050: 7e5f 373e f852 ec3c 2432 373e b663 44be
00000060: 27d2 3f3e c987 fb3d 8547 e4bd 046f 34bd
00000070: 0031 debd 06a1 383e 4ded 34be fdea a7bd
00000080: 3099 c93c bba9 0dbe 6e94 85be 98aa d3be
00000090: d2a0 8fbe 146a 5fbd 7053 ba3d 41a1 a8be
000000a0: b92b 93bd 0f23 c0bd 195c b63c 8851 8dbd
000000b0: 3daf dc3d 529a 1f3e 7277 a43d c4c7 123e
000000c0: 208b 163c 79b8 0abc ac4c e33d 4846 083d
000000d0: 446c 063e 4762 0cbe f84f fbbd 82d0 31be
000000e0: 53cd babd 380b 323e 0b55 893e 4468 9c3e
000000f0: 336e f5bd 4101 7e3d d5c7 aebd bde4 3c3c
00000100: be9f 203e 78f2 b83c 90c1 ad3e 2da9 1ebe
00000110: d071 063c 5462 963d 1260 183e bc5d 8a3d
00000120: 802c 3bbb 4086 053b 57bb 21be e236 cfbe
00000130: f68e c63d 2519 3a3e c03f 993d fec3 27be
00000140: 2deb 673e 559b 9fbe 40fa 203c f51f f3bd
00000150: 1c0c cc3d d4c0 d73d 065f d0be 6896 fabc
00000160: e0e8 2cbe f4fd 0a3d d109 3abe 5d06 97bd
00000170: aa76 27be a0b7 f63c a8d6 b7bc f065 d53c
00000180: e112 1fbe 9492 07be b63f b9bd 4ea0 aabd
00000190: 3426 01bd 3673 873d 6f28 3bbb 110f 20be
000001a0: 082a ed3c de73 ad3d 416e d6bd 8a9f ba3d
000001b0: 536d bfbd b2ec 07be 7dc6 b2bd 9c8a edbd
000001c0: 0d6a 1bbe 96ed 27be 62a8 343e 803f 1c3e
000001d0: a78e c83a 4aa4 f2bd 7083 d73d a75e 1f3e
000001e0: 458a 35be 82a4 50be 8db4 18be b67d f5bc
000001f0: 508c 07be 038b ca3d fd68 433b ca47 bcbd
00000200: b32f 80bd 2c17 5e3c efee 00be 1ce0 22be
00000210: 7607 d23d ed40 fa3d b528 d73d d77c cbbd
00000220: deab 123e 3cac f93d ecec 90bd f84f 493d
00000230: 5c8d b23d c07c 323b a0a7 043e 046b 3abe
00000240: 1020 b73d 781c 663d 683d d3bb ce65 37be
00000250: 9795 663a eed1 77bd cb4c 2fbe fef1 34bd
00000260: 87d1 693e c095 bebc 4d20 9cbd c910 36be
00000270: 8c4d 2e3e 18b6 b33d 102e 13be 307e 023e
00000280: 69a4 953c 038a d8bd d88e 3d3e 2686 163e
00000290: 427b dd3d 8506 6d3d 4707 be3e 1a69 c1bd
000002a0: 4054 61bc b6af 9dbd 2757 d6bb f4e7 3dbe
000002b0: d424 cc3d a86d 1c3e 97b5 9b3d 9d09 cabd
000002c0: 38f6 063d a87b a3bc 2cbe 3f3d baa9 1d3e
000002d0: 27b1 803e 743a 8fbe 2c65 22bd 15f2 a6bd
000002e0: 8497 fa3b b317 6fbc d6fc a4be 5875 053e
000002f0: 9c15 d33d 108b 513c 5b34 08be 988a ecbc
00000300: f8b2 4fbd 8aab 2f3e 91cd 6a3e 70fa 11be
00000310: 700b 8b3e e9b4 82bd 0ab6 b53c 3216 61bc
00000320: bcf0 263e f4e5 a03d a086 a7bb 8003 233d
00000330: 6a8f acbe db98 823d 1ab8 923d 7c3a 3abd
00000340: 0065 8e3c 3460 debd 043f c83d 641b f53d
00000350: a799 92bd 995b e6bd d92c 28be 5bde 0bbe
00000360: cb0c f33d 10a3 27bc 649f 0ebe d2d5 27be
00000370: b838 033e 5926 9dbd b154 24be bf8b 8fbd
00000380: f480 6d3d c02f 81bd 802c 09bd bbe9 1c3e
00000390: 5ca1 e43d 83c9 3b3e 6086 c9bb 5ca3 373e
000003a0: 3b20 803e 5083 54bd 5fb1 3e3e bf47 9abd
000003b0: 0cf7 943d 7e96 d13e 3bd2 16be e8d3 913d
000003c0: 808e dc3d 0bb7 b23c 0c8a 173e da34 17be
000003d0: 2e51 833d 10ee d93d 1e3d dabd 48af d73c
000003e0: acfa 583d 109d 703c 2b7c aabc a3f5 193d
000003f0: 6111 f4bd 7e74 d73d 1513 9f3e 860f a2be
-0.037547156 0.062039364 0.044255234 0.47999784 -0.039808556 0.08507806 -0.04782352 0.12581998
-0.0643952 0.15872669 0.20525342 0.10191886 -0.07714783 -0.12151538 -0.014698848 0.08236118
0.11266107 -0.05082199 0.14654341 0.048477113 0.17907521 0.028848156 0.17890221 -0.19178662
0.1873251 0.12281758 -0.11146454 -0.044051185 -0.1084919 0.18030176 -0.17668648 -0.08199117
0.024609178 -0.13834278 -0.26089805 -0.4134109 -0.28052384 -0.054544523 0.09097946 -0.32935527
-0.07186074 -0.09381687 0.022260712 -0.069003165 0.107756115 0.15586212 0.08030595 0.14334017
0.009188443 -0.008466833 0.110986084 0.03327015 0.13127238 -0.13709365 -0.12271112 -0.17364696
-0.09121194 0.17387092 0.26822695 0.30548298 -0.119839095 0.062012915 -0.08534209 0.011529145
0.15685937 0.022576556 0.3393674 -0.15494223 0.008205846 0.07342973 0.14880398 0.0675616
-0.002856046 0.0020374209 -0.1579412 -0.4047156 0.096952364 0.18173654 0.074828625 -0.16383359
0.22648306 -0.31173196 0.009825289 -0.1187133 0.09963247 0.10534826 -0.40697497 -0.030589297
-0.1688571 0.033933595 -0.18167807 -0.073742606 -0.1635386 0.030116856 -0.022441223 0.026049584
-0.15534545 -0.13239509 -0.09045355 -0.08331357 -0.031530574 0.066137716 -0.0028558036 -0.15630747
0.028950706 0.084693655 -0.10470248 0.09112461 -0.09347024 -0.13273886 -0.08729265 -0.11598703
-0.15177174 -0.16399226 0.17642358 0.15258598 0.0015301303 -0.11847742 0.105231166 0.15563451
-0.17728527 -0.20375255 -0.14912625 -0.02996717 -0.13237119 0.09889796 0.0029817217 -0.0919338
-0.06259098 0.013555329 -0.12591146 -0.15905803 0.10255329 0.12219415 0.10505811 -0.09935921
0.14323375 0.12191054 -0.07076439 0.04914853 0.087183684 0.0027235001 0.12954569 -0.18204886
0.08941662 0.056179494 -0.006446529 -0.17909929 0.00087960943 -0.06050294 -0.17119138 -0.044176094
0.22833835 -0.023264766 -0.076233484 -0.1777984 0.1702177 0.08774966 -0.1437304 0.12743449
0.018266873 -0.10573199 0.18511522 0.14699611 0.10814525 0.057867546 0.37114927 -0.09443875
-0.013752997 -0.0769953 -0.006541151 -0.18545514 0.09967962 0.15276206 0.07602995 -0.09865115
0.032949656 -0.019956425 0.04681222 0.15396777 0.25135157 -0.27974284 -0.039647266 -0.08151642
0.0076474566 -0.014593053 -0.3222415 0.13033044 0.10306856 0.012789503 -0.13301222 -0.02887468
-0.050707787 0.1715528 0.2292998 -0.1425569 0.27157164 -0.06382162 0.02218153 -0.013738202
0.1630277 0.0785636 -0.005112484 0.03979826 -0.33703166 0.06376811 0.07164021 -0.04546593
0.017382145 -0.10858193 0.09777644 0.11968115 -0.07158213 -0.112479396 -0.16423358 -0.1365904
0.118676744 -0.010231748 -0.1392799 -0.1639016 0.12814605 -0.0767333 -0.16047932 -0.07009076
0.057984307 -0.06307936 -0.033489704 0.15323536 0.11163589 0.1833859 -0.006150052 0.1793341
0.2502459 -0.05188304 0.18622349 -0.07533216 0.07273683 0.4093513 -0.14728634 0.07120496
0.10769367 0.021815797 0.14798754 -0.14766255 0.06411968 0.1064111 -0.106561884 0.026328698
0.052973434 0.014685884 -0.020811161 0.037587773 -0.11917377 0.10520266 0.31069246 -0.31652468

fc2.weight f4 [256, 256]
00000000: 5de5 893b a600 ce3c af1c eebc f4e5 f03e
00000010: b24d 23bd affc 23bb a04d 1dbd e55a ff3c
00000020: aef6 ce3c ef5e 81bc 919e 0c3f 7cc0 513d
00000030: d4d8 f3bc 0a91 39bd 1178 c6bb 17f8 f7bc
00000040: bc67 ef3d 7c00 bc3c 569e 873c 5476 303d
00000050: 7415 623c e684 6e3d e408 5c3c f219 25be
00000060: f1e2 9fbc 3614 1038 929c 643d 1edf 9abd
00000070: 6f4a c33b 582c a73c 1797 69bd 1808 6dbe
00000080: e611 133d 5cbc a5bd 82c7 c8bd 8583 92bd
00000090: 2633 b2bd 50bd 283c e10d dc3d af75 51bd
000000a0: 7a41 be3c 40d2 763c 90d5 c2bc e7bf 4d3c
000000b0: 127c 7abd 0696 5abc 9a6d 6ebc ec99 753d
000000c0: d0d3 f3bb 31c6 b23d 2674 583c 8443 ea3c
000000d0: 52b9 8ebd 0089 97ba f211 053d c222 233d
000000e0: eccd 7b3c 8aea 413c c5d7 123c e245 f03d
000000f0: 060b 97bd 0228 45bd 70ab 14bc 84cb fbbc
00000100: fa24 0c3d 1265 4b3d 6802 c23d 842c 1ebd
00000110: 007e 05bd ce86 17bc a885 963c 572a 8cbd
00000120: ce1a 52bd 239f 89bd 342a a1bd 052b cfbd
00000130: f00c 153c 6861 0b3e b1d8 87bb 7c56 99bd
00000140: 9390 093e d0bc ecbd a8d6 2ebd dda3 00bd
00000150: 98b4 043d eaf6 2ebd 9d77 11be b0b0 d33c
00000160: ee48 083d 6e1b 3d3c 300e d63b 9c80 d9bc
00000170: f2d1 ec3c 5e19 2e3e cb45 b4b9 fbcc 85bd
00000180: 73b9 02bd 4eb8 033d b712 0a3d 13fa e9bc
00000190: 5cf3 41bd e09e 75bc 494b 4bbd fea7 903c
000001a0: b206 7abd 49bd 0d3d e11f 81bd c3ec 0a3d
000001b0: c879 76bd 501d 923c 34ba 533d 2c83 3fbb
000001c0: 48b7 a43c 78ec 813c bac7 12bd 6ebd 83bd
000001d0: 39ca bb3c 407c f9ba c5f1 15bc 52c3 453e
000001e0: 62c2 2dbc 3256 433c b94b ccbc 23fb 79bd
000001f0: 567a 373a 1925 34bd 5958 40bd 3d45 1ebd
00000200: 7f85 373d f9c8 f83d baa4 103d d200 7fbd
00000210: 0de2 4bbd 8c99 c5bc 8ce1 2f3d 5887 ed3c
00000220: 0d5c 923c 09c1 89bd dfe3 36bd 9c50 203b
00000230: d7c1 31ba e829 943c dbde 92bc 3803 1f3c
00000240: 8c91 2e3d 56e0 08bd aedc 67bc 0a73 d2bc
00000250: 1448 c2bc e3b0 48ba aca6 3a3c 4ba6 4cbd
00000260: 6d50 193e 6e96 17bc bb82 a4bc ac3a 993c
00000270: 885a 983c 3ecd 0d3c c4c8 37bd 5ac5 743c
00000280: 2c00 4fbd fd8a dfbe fabd ce3d 002a 6b3d
00000290: 0df2 1d3c 6565 5c3e 7581 b83e c29f 8bbd
000002a0: 284c 33bd 30b2 8d3c 24c5 913b 6c1b b6bd
000002b0: 1bd9 00bd 71aa f33d 3e8f 2dbd d6c2 473c
000002c0: 650b 3e3d 52c5 f93c b0ac 4dbd c9a1 04bd
000002d0: ca1d 343f e98d efbd 1e1e 97bc 8038 6b3d
000002e0: 55c2 27bc 9a04 d6bc 3a28 babc 3409 72bd
000002f0: 34ed 96bc 20db 043d b62e 263d 6c54 37bd
00000300: 383b 41bd 5c33 de3b a722 a03e 4201 22bd
00000310: f02b 103d 7910 f5bd 707b 1bbc 2496 163d
00000320: 88e2 82bd 4853 b1bc e0a1 24bd 1676 893c
00000330: 941d a9bd f936 563d 4c46 90bb 4abc 6e3c
00000340: 9efa 7ebd 4faa 0cbd a444 933c d8c9 c23c
00000350: 8283 503d 68c4 edbc 171d cdbd 4bb2 87bc
00000360: 3328 623d c452 ec3c 1d8f c1bc 5dd4 34bd
00000370: 0883 4dbd 381d 97bd caa5 01bd 045e 283d
00000380: 4e8d 17bd 6066 1d3d e805 ca3b fa05 9ebd
00000390: 288e d9bc 3ca8 11bd 9462 35bd dc2a f9bb
000003a0: 345b 5c3e 56f2 68bd 7f7c 363d 9c7f d4bb
000003b0: bcfb 35bd 981e b33e 7221 6fbc 13a0 49bd
000003c0: fefb 6f3d 85ea 93bc 625a 323d 41dd 81bd
000003d0: aea4 cb3c 88dc 4d3d 215a 8ebb d8d3 77bd
000003e0: 1034 f33c 66f0 a8bc f510 ae3a 1440 953c
000003f0: 2e9f cebd 6e48 8abd 460f d33e e36b 2ebe
0.0042082504 0.025146794 -0.029066412 0.4705044 -0.039869018 -0.0025022437 -0.038404107 0.031171272
0.02526411 -0.015792338 0.54929453 0.051208958 -0.029766478 -0.045304336 -0.0060567935 -0.030269666
0.11689708 0.02294945 0.016554993 0.043081596 0.01379906 0.05823221 0.013429854 -0.16123179
-0.019517394 3.43511e-05 0.05581338 -0.075620875 0.005959801 0.020406887 -0.057028856 -0.23147619
0.03590574 -0.08092567 -0.09803678 -0.071539916 -0.08701162 0.010299042 0.10744835 -0.051137622
0.023224581 0.015064776 -0.023783475 0.01255796 -0.06115348 -0.013341432 -0.014552498 0.059961244
-0.0074410215 0.08729208 0.013211286 0.028596647 -0.06968941 -0.0011561215 0.032487817 0.03982807
0.01536892 0.011835704 0.008962576 0.11732079 -0.073751494 -0.048133858 -0.009074077 -0.030736692
0.03421495 0.049656935 0.09473115 -0.038616672 -0.032590866 -0.009248449 0.01837428 -0.06844013
-0.051295094 -0.06719806 -0.07869378 -0.10115627 0.009097323 0.13611376 -0.0041457047 -0.07487199
0.13434057 -0.115594506 -0.04268518 -0.031406272 0.03239879 -0.042715944 -0.14205785 0.025841087
0.033272676 0.011542184 0.006532453 -0.026550584 0.028908703 0.17001864 -0.00034384275 -0.065332375
-0.03191514 0.03215819 0.033709254 -0.028561627 -0.047351226 -0.014991492 -0.049632344 0.01765823
-0.06104154 0.034604345 -0.063049085 0.0339172 -0.060174733 0.017836243 0.05169125 -0.0029222472
0.020106927 0.015859827 -0.035835005 -0.06432615 0.022923576 -0.0019034222 -0.009151881 0.1931279
-0.0106054265 0.011922406 -0.024938451 -0.06103052 0.00069991255 -0.04398069 -0.046959255 -0.03864025
0.044805046 0.121477075 0.035313345 -0.06225664 -0.049776126 -0.024121068 0.042939708 0.028995201
0.017866159 -0.06726272 -0.04465091 0.002446211 -0.00067808985 0.018086389 -0.017928531 0.009705357
0.042619273 -0.03341707 -0.014151735 -0.02568962 -0.02371601 -0.00076557527 0.011392277 -0.049963277
0.14972086 -0.009252174 -0.020081868 0.018704735 0.018597856 0.008654891 -0.0448692 0.01493963
-0.050537273 -0.43660727 0.10094829 0.0574131 0.009640229 0.21523054 0.36036268 -0.06817581
-0.0437738 0.01729688 0.00444855 -0.08891949 -0.031457048 0.118977435 -0.042372935 0.012192449
0.046397585 0.030489597 -0.050213516 -0.032380853 0.70357955 -0.11696989 -0.018446978 0.05742693
-0.010239203 -0.026125241 -0.02272426 -0.059090808 -0.018423654 0.032435536 0.04057189 -0.044758245
-0.047175616 0.006781025 0.31276438 -0.03955198 0.035198152 -0.119660325 -0.009489879 0.03676428
-0.06390864 -0.021646157 -0.04019344 0.01677994 -0.08257595 0.05229852 -0.0044029113 0.014571259
-0.062250726 -0.034342106 0.017977066 0.023777887 0.050906666 -0.029024318 -0.10015314 -0.016564509
0.05521412 0.02884806 -0.023627812 -0.044147838 -0.05017379 -0.0737862 -0.03165225 0.041105285
-0.036999993 0.03842771 0.006165255 -0.07715984 -0.026557043 -0.03556083 -0.044283465 -0.007603986
0.21519166 -0.056871735 0.044552322 -0.006484939 -0.044429526 0.3498428 -0.014595376 -0.049224924
0.058589928 -0.018056164 0.043543227 -0.06341029 0.024858799 0.050259143 -0.0043442403 -0.060504764
0.029687911 -0.020622443 0.00132802 0.018219031 -0.10088955 -0.06752096 0.4122259 -0.17033343

fc2.bias f4 [256]
00000000: 2009 843c ff14 0ebd bacc 8a3d a65a 343d
00000010: 1659 3a3c 45fa db3c b060 303d b714 34bd
00000020: 3361 193d 15b0 503b 1af2 adbc 2cd8 703d
00000030: 39a1 b2bc d2aa 193d d9ef 00bd 57eb 3abb
00000040: ff5a 06bd 4c2d 8abc 48bd 25bc 59a3 3dbd
00000050: 1469 123c ce05 023d d7a6 dbba ba83 82ba
00000060: 61ee 7f3d 69f2 2ebd c48b 85bd 6aa4 8dbd
00000070: 65c3 2bbc a11b d23c ff84 ab3c c0dc 593d
00000080: 6ae5 e3bc 01eb 0fbd 9385 6cbc 70e7 753d
00000090: 3714 cebc c3c3 693d 01ef 88bc 2345 96bc
000000a0: 3843 f23c 6c16 4dbd 1e15 883a 717f 39bd
000000b0: 2710 d2bc be8b 21bd d68e ca3c b68d 0f3c
000000c0: ae78 9ebc 0f65 8b3d 6ec4 ff3c 1559 853d
000000d0: ffe7 45bd bb91 863d 6033 92bd b615 00bd
000000e0: 23ec 8fbb fd24 283d 2960 bf3b 8174 4f3d
000000f0: 5910 8d3c ef4c d3bc 44f1 fe3b c390 733b
00000100: 2d2f 8b3d 92fd bd3c 5494 f839 0853 04bd
00000110: 9c99 85bd b1a7 41bd c885 1e3d 77bb 5cbc
00000120: 73d2 f0bc f63e cd3b 730c 9f3d df5c 7e3d
00000130: 315b 0a3d 7bad 8abd de26 383c 4c27 1b3d
00000140: 1da9 ce39 e9fa 6fbc a7a7 5cbd 92da 24bd
00000150: 96eb b7bc 50bb 143d 4294 253d 5057 3f3d
00000160: 85b0 f8bc d95a 3fbd 275f ac3c db81 7d3a
00000170: eef1 57bd 58e5 1f3c 34aa a53c 3f3b 05bd
00000180: a7a3 dfbc c8f6 1d3d ad3c c0bc 2a1b 3f3d
00000190: 417a c73c 7811 e93c e399 bd3b 271e 7fbd
000001a0: a7e0 29bd ca11 143c 9057 40bc 2073 d4bc
000001b0: b39a 15bd 57a1 9e3c 5620 83bc dbba 6cbd
000001c0: 591d c93c c7b2 f93c af88 553c e713 08bd
000001d0: ef81 9a3d dbb7 91bd 7c8e 5dbd df44 55bd
000001e0: bcfc d93c 5e07 36bd b688 0b3d ac39 e5bc
000001f0: 7e52 bdbb 38bc 74bd 0fbd 78bc fa0c 0e3d
00000200: 69cc 25bd 3d89 2d3d 9425 d53c 3259 533d
00000210: 7cf6 cfbc ee73 bcbc 90ac b83a 94ae 41bb
00000220: 6d9f 9c3b f18d f53a 74cf bc3b a6aa 1bbd
00000230: dcd3 073d 81d4 f8bc 9dd5 55bd 9181 92bc
00000240: de4e 503d 4e88 8dbd 0233 d03c c453 a43c
00000250: cada 0dbd 6fa5 8dbd 4b6c 0f3d 5a33 0ebd
00000260: ec4d 163c c4e2 83bd 17a0 ddbc 11a9 9abc
00000270: 56d1 2fbc 4435 7dbd 3fd0 8f3c d1e9 b2bc
00000280: b08c 5ebd 2c05 8dbb f33a 803d 71d2 b6bc
00000290: 392c 35bd 4055 babc 49b6 9bbd 7282 febc
000002a0: c5ac 663d b999 ca3c c804 db3c 6e00 12bd
000002b0: f924 d23b 9756 5fbd fd66 a3bc 8aaf 6abd
000002c0: eba3 b83b 4eac 913c 670b 823d 2b4a 393d
000002d0: ebd9 81bd fdc9 8ebd 14ce 32bd b8a4 1a3d
000002e0: 5221 79bb df2d 8abd 6864 fbbc 29b8 6e3b
000002f0: c047 e83c 3a8c 99bd 0e65 103b 301c adba
00000300: 8199 e2bc c370 babc 00a7 363c 7315 383d
00000310: aced a43c 9eff 423d 877c 41bd 0953 b83b
00000320: 9d4d 853d 0fab cf3c 11d3 4ebc 58ce 6e3c
00000330: 5fed d13c 669e 4fbd bded 6f3c 4ff2 8d3c
00000340: bc50 25bc 5e6d 72bd ca46 b1bc d221 273d
00000350: acf6 983d 09ce dd3c c966 123d 5965 673d
00000360: a3f1 8a3d 3095 a33d ab49 5c3d b57d efbc
00000370: 7de4 e7bb e4b2 843c 05d4 70bb bafc b4bb
00000380: f8d1 6f3d 5cd6 41bd f5b3 5f3c 6578 debc
00000390: 2ec9 c1bc 845a 3dbc 225d 0ebd 7645 083d
000003a0: b4a7 09bd 86da 383d 3ed5 d5bc b6b3 3fbc
000003b0: f598 523d 8610 f5bb 81c7 2f3c 5c9a 433d
000003c0: 7540 593d 71ca a43c 2156 67bc 11e5 083d
000003d0: 51a9 0c3c a1d0 81bb b8cf 04bc b7d2 0ebc
000003e0: 7ce6 cabc ef18 2bbb 4403 5d3d fe4a 253b
000003f0: e972 d6bc d9d2 2fbd d012 103d 288b 0fbc
0.016117632 -0.034687992 0.0677733 0.04403176 0.011373779 0.026852736 0.04306096 -0.043965068
0.037446212 0.0031843234 -0.021233607 0.058799908 -0.021805393 0.037516423 -0.031478737 -0.002852162
-0.032801624 -0.016867302 -0.010115929 -0.04629836 0.008936185 0.031743817 -0.0016758096 -0.000995747
0.062483195 -0.04271165 -0.06520799 -0.06916125 -0.010483597 0.02564794 0.02093744 0.05318904
-0.027819354 -0.035136227 -0.014436143 0.06003517 -0.025156124 0.05707146 -0.016715528 -0.018343514
0.029573068 -0.05007021 0.001038227 -0.045287553 -0.025642468 -0.03943991 0.024726313 0.008761814
-0.019344654 0.06806385 0.031221595 0.06511132 -0.04831695 0.06570765 -0.07138705 -0.031270705
-0.0043921634 0.0410509 0.0058403206 0.050648216 0.01721971 -0.02579352 0.007780226 0.0037165142
0.067961074 0.0231922 0.0004741276 -0.032305747 -0.06523439 -0.047279064 0.038701802 -0.0134724295
-0.029397225 0.006263609 0.077660464 0.062100288 0.033778373 -0.0677137 0.011239735 0.037879273
0.0003941738 -0.014647224 -0.053870823 -0.040247507 -0.022451203 0.036311448 0.040424593 0.046714127
-0.030357609 -0.0467175 0.021041466 0.0009670534 -0.052720957 0.00975927 0.02022276 -0.032527205
-0.027299715 0.038565427 -0.023466432 0.046656765 0.024350287 0.028450713 0.005786167 -0.062284615
-0.04147401 0.009037444 -0.0117396265 -0.025933802 -0.036524486 0.019364042 -0.01600663 -0.057795387
0.024550127 0.030480755 0.013033076 -0.033222105 0.07544314 -0.07115146 -0.05409096 -0.052067634
0.026609771 -0.04444062 0.034065925 -0.027981602 -0.005777656 -0.059749812 -0.015181794 0.034680344
-0.040478144 0.04236721 0.026018895 0.051598735 -0.025386088 -0.023004498 0.0014089514 -0.002955352
0.004779747 0.0018734318 0.005762035 -0.03800454 0.03316103 -0.030374767 -0.05220567 -0.017884048
0.050856464 -0.06910764 0.025414947 0.020059474 -0.03463248 -0.069163196 0.035015386 -0.03471694
0.009173851 -0.064397365 -0.027053876 -0.018879445 -0.010731062 -0.061818376 0.017555354 -0.021840008
-0.05433339 -0.004303595 0.06261244 -0.022317143 -0.044231627 -0.022745728 -0.076031275 -0.03106806
0.05631711 0.024731504 0.026735678 -0.03564494 0.006413099 -0.054525938 -0.01994657 -0.057296313
0.005634775 0.017782357 0.06349831 0.045236748 -0.06340393 -0.0697212 -0.043653563 0.037754744
-0.0038014245 -0.067470305 -0.030687526 0.0036425686 0.028354526 -0.07497449 0.002203289 -0.0013207253
-0.027661087 -0.022758847 0.011148214 0.04494233 0.020132862 0.047607057 -0.0472379 0.005625133
0.06508944 0.025350122 -0.012623564 0.014575563 0.025625883 -0.05068817 0.014644084 0.017327456
-0.010090049 -0.059186332 -0.0216402 0.040803738 0.07468924 0.027075784 0.035742555 0.056493137
0.0678437 0.0798744 0.053781193 -0.029234746 -0.0070767985 0.016198583 -0.0036747467 -0.0055232914
0.05854985 -0.04732357 0.013653745 -0.027157018 -0.0236555 -0.011557225 -0.034756787 0.033269368
-0.0336072 0.045130275 -0.026102658 -0.011700561 0.051415402 -0.0074787764 0.010728718 0.04775463
0.053039987 0.020116063 -0.014119656 0.03342158 0.00858529 -0.003961638 -0.008106165 -0.0087172305
-0.024768107 -0.002610739 0.053958192 0.00252217 -0.02617784 -0.04292569 0.03517419 -0.008761205

fc3.weight f4 [1, 256]
00000000: ce73 f2bd 4de7 063e ef67 2e3e 13c3 0abe
00000010: 10b4 073e b266 173e 928c 27be c389 0dbe
00000020: fb62 263e ec29 20be 0540 31be 39f8 513e
00000030: 3a6a 15be c9c6 4cbe c559 09be 6f7c 533e
00000040: 931c 2e3e 3dd6 eabd 7d3d 13be b732 1c3e
00000050: 4b85 233e ca95 1d3e 8fab 163e 7464 21be
00000060: f59b 0b3e 71f2 29be 9e2d 1bbe 7575 18be
00000070: e96b 5c3e 3176 0cbe 2250 05be e370 1f3e
00000080: 7405 19be b0e3 3abe a9f4 0cbe e9fd 303e
00000090: 5fd2 10be c35a 223e 7f54 173e 8f69 2c3e
000000a0: d19a e03d 77af 04be d9cf 093e accf 0bbe
000000b0: 4cec fc3d ea12 293e abd7 0b3e d06d d83d
000000c0: be0f 0f3e e1f0 f63d 5886 f3bd 270e f13d
000000d0: 4f17 163e 43de 1e3e 2202 2fbe 2472 56be
000000e0: 5959 183e 0413 0cbe a87f 513e 948c 1f3e
000000f0: 581f 09be 3519 fcbd e6f1 26be aa5f aabe
00000100: 2521 023e 5f8b 3abe 8065 5b3e b368 02be
00000110: 32b5 e4bd 0ebb 0abe b279 3a3e 8805 1fbe
00000120: f2bd 203e a3e3 f33d 8a4f 193e dd58 103e
00000130: 9272 5c3e d5f0 dabd fb37 0ebe 92ba efbd
00000140: de9d 023e 8a63 3cbe ba99 c33d 78c0 143e
00000150: ab48 4f3e 7da0 15be 9f0e f63d ef2d 18be
00000160: 187b 123e bff7 f0bd 20f6 153e 2908 203e
00000170: 6b23 f6bd f86e ffbd db88 1bbe 453c 0d3e
00000180: 9824 fcbd e5a9 5d3e ac41 023e 56aa febd
00000190: 391a 31be 47a8 db3d e2a9 0cbe 3f07 f8bd
000001a0: cbd8 203e 566d 113e 1d24 09be 39a5 30be
000001b0: 72a8 013e c5fe 34be 59a9 01be 8383 2cbe
000001c0: d8e6 333e 5538 013e fd50 17be 8caa 063e
000001d0: 3170 243e 3f7f febd c4ad 1dbe 3f9d 04be
000001e0: f037 1ebe 20e7 e73d 8c45 f93d 084b 05be
000001f0: 05e2 2ebe 30fc 1bbe 8233 e9bd e639 0b3e
00000200: 43f8 0abe f532 43be a1a4 0e3e 780d ec3d
00000210: f5a4 253e f3b7 1bbe 0f92 cb3d ccad 0abe
00000220: d604 163e fbf3 05be 86aa 303e 61ea 1bbe
00000230: c448 093e 1491 823e 098e f23d 5072 083e
00000240: 6009 063e ef53 2abe 4678 e1bd a8a1 10be
00000250: 81cb 0e3e e9b7 5dbe a1b1 fd3d a839 7c3e
00000260: 3bc6 19be f7a2 4cbe 02ed 04be 777c 2e3e
00000270: ca85 343e ce75 2abe af28 f93d 88d2 23be
00000280: 1343 13be 8d03 303e 6a6a 293e 9b37 44be
00000290: fd08 08be 3162 11be 1f87 f1bd ac17 0fbe
000002a0: 8698 193e 868b 373e 96d4 1abe 4dc1 6cbe
000002b0: 9161 31be 35e0 15be 2da2 073e f70d ffbd
000002c0: 75ba 213e 5e2b 313e ecdd 1a3e 5aae 203e
000002d0: 4af3 efbd 7b50 6dbe fb18 353e ecf3 f8bd
000002e0: 7b5a ffbd 9af1 16be 415f 273e 4693 06be
000002f0: a224 09be a0f4 07be 2eb0 02be 48e0 113e
00000300: 0705 0bbe 97b6 193e 369c d93d 334a 0c3e
00000310: 4982 3d3e 97f5 1d3e 2d64 24be 899b 41be
00000320: 1213 2b3e 0c92 9ebe 0b66 483e e76d f1bd
00000330: 5db8 07be 8a29 fd3d b949 3e3e f3e0 12be
00000340: d674 363e c946 18be 48e6 39be 58bc 2ebe
00000350: 60f6 093e 7e4e 05be a280 043e ece3 4f3e
00000360: c1de c23d fe11 1f3e 73dd 223e 857f 1ebe
00000370: 938a 093e 91e9 033e eea9 18be 6ff5 813e
00000380: 9d19 643e cf09 133e fb13 fdbd 5bba 0a3e
00000390: d9e6 eebd 65c3 343e bb19 e83d 4024 183e
000003a0: eedc 2e3e b447 11be cdc6 dbbd 1558 03be
000003b0: 2421 783e 73ac 1ebe 79e7 233e a091 eb3d
000003c0: 246a 303e 492a 25be dd13 523e b38b 103e
000003d0: 4de6 203e 1aeb 08be c241 e8bd 5ec4 efbd
000003e0: 06ac 38be 3cd9 f73d 57b8 2e3e 5758 0fbe
000003f0: 0e0f f3bd 399d 093e 9677 06be de9f 09be
-0.11838494 0.13174172 0.17031835 -0.13550977 0.13252282 0.14785269 -0.16362217 -0.13822083
0.16248696 -0.15640992 -0.17309578 0.20504846 -0.14591303 -0.19997706 -0.1341315 0.20652936
0.17003088 -0.11466644 -0.14378925 0.15253721 0.15968816 0.15389171 0.14713882 -0.15760976
0.13633712 -0.1659639 -0.1515412 -0.14888556 0.2152554 -0.13716961 -0.1301885 0.15570407
-0.14943486 -0.18250918 -0.13765205 0.17284359 -0.1414275 0.15854935 0.14778326 0.16837142
0.10967029 -0.1295756 0.13458194 -0.1365344 0.123497576 0.16511121 0.1365649 0.1056782
0.13970849 0.12057663 -0.118908584 0.117702775 0.14657329 0.15514474 -0.17090657 -0.20941979
0.14877833 -0.13679129 0.20458853 0.1558097 -0.13390863 -0.12309495 -0.16303214 -0.3327611
0.12707956 -0.18217228 0.21425438 -0.12735252 -0.11167373 -0.13547918 0.18210486 -0.15529454
0.15697458 0.11908653 0.14971748 0.14096399 0.2152808 -0.10690466 -0.13888542 -0.11705507
0.12755534 -0.18397346 0.095508054 0.14526546 0.20242564 -0.14612003 0.120145075 -0.14861272
0.14304769 -0.11766004 0.1464467 0.15628113 -0.12018474 -0.124723375 -0.15188925 0.13792522
-0.12311667 0.21646841 0.12720364 -0.12434833 -0.1729516 0.10725456 -0.1373668 -0.12110757
0.157077 0.14201865 -0.13392682 -0.17250527 0.12661913 -0.17675312 -0.12662257 -0.16847043
0.17568529 0.12619145 -0.14776988 0.13150996 0.16058423 -0.12426614 -0.15398318 -0.1295061
-0.15451026 0.113233805 0.12171468 -0.13016903 -0.17078407 -0.1523292 -0.113867775 0.13596305
-0.13571267 -0.19062407 0.13929988 0.115260065 0.16176207 -0.1520689 0.09939968 -0.13542861
0.14650282 -0.13081352 0.1725255 -0.15226127 0.13406664 0.2550131 0.11843497 0.13324857
0.13089514 -0.1663358 -0.110092685 -0.14124167 0.13944818 -0.21652187 0.12387396 0.24631369
-0.15017025 -0.19984041 -0.12981036 0.17039667 0.17629161 -0.16646501 0.12165963 -0.1599828
-0.14381056 0.17188855 0.165445 -0.19161837 -0.13284679 -0.14197613 -0.117933504 -0.13973874
0.1499959 0.17924318 -0.15120158 -0.23120613 -0.17322375 -0.1463631 0.13245459 -0.124538355
0.15793784 0.173017 0.15123719 0.1569151 -0.117163256 -0.23175232 0.1768531 -0.121558994
-0.1246843 -0.14740601 0.1634493 -0.13142118 -0.1339288 -0.13276911 -0.1276252 0.14245713
-0.13576137 0.15011059 0.10625498 0.1370018 0.18506731 0.15425716 -0.16053839 -0.18906988
0.16706493 -0.309708 0.19570176 -0.1178854 -0.13253923 0.123614386 0.1858281 -0.14343624
0.17818007 -0.14870752 -0.18154252 -0.17064035 0.13472891 -0.13018224 0.12939695 0.20301789
0.09515143 0.15534207 0.15904789 -0.15478332 0.13431768 0.12882067 -0.14908573 0.25382563
0.22275396 0.1435921 -0.123573266 0.13547651 -0.116651244 0.17652662 0.11333033 0.14857578
0.17076465 -0.14187509 -0.107312776 -0.1282657 0.24231392 -0.15495472 0.16006269 0.11502385
0.1722799 -0.16129412 0.2051539 0.14115791 0.15712853 -0.13370934 -0.11340667 -0.11707376
-0.18034372 0.12101981 0.17062508 -0.13998543 -0.11868106 0.13438882 -0.13131556 -0.1343989
